FinalProject/Backend/Classifier/model.pt (torch, 387927 bytes, 6 tensors)

lstm.weight_ih_l0 f4 [512, 57]
000000 c0 b3 39 be 80 8a de 3e da 85 4e be a3 4b bb be
       -0.18134975 0.43465042 -0.20168248 -0.36581144
000010 a7 0f a6 be c0 19 84 be 98 ed 8b be fa e5 64 bf
       -0.32433817 -0.25800896 -0.27329707 -0.89413416
000020 63 0e ce 3e f4 59 b6 3e 32 ae 40 3f 0d ea 29 3f
       0.4024535 0.35615504 0.752658 0.6637276
000030 91 2f 44 bf 81 db ef 3c 24 36 75 bf a1 2b e1 be
       -0.7663508 0.029279472 -0.9578574 -0.439786
000040 17 7e ad 3d 34 21 ba 3e 6b 97 35 be d7 28 8b be
       0.08471315 0.36353457 -0.17733543 -0.27179596
000050 df 41 e4 bc cc 8b 0a bf 7b 14 85 bd 5d b8 42 bc
       -0.027863441 -0.54119563 -0.06498047 -0.011884776
000060 31 04 36 bf d2 70 0c bf 2f fa 8f 3f bf 2b 13 40
       -0.71100146 -0.5485965 1.1248225 2.299545
000070 bc ca 5d 3f a8 41 c7 bd 2b 6c 02 3d a3 aa 0f 3f
       0.86637473 -0.0972932 0.03184144 0.56119746
000080 f7 67 49 3f 7e e5 b9 3e f0 78 b7 3e 53 6a 06 be
       0.7867426 0.363079 0.35834455 -0.13126497
000090 44 e3 d9 be 7e b8 d2 3e b9 c4 3f 3f ed 29 d3 3f
       -0.42556202 0.4115638 0.7490955 1.649717
0000a0 44 f2 4a 3f 49 40 62 3f 33 10 0f 3f 31 d2 74 3f
       0.7927592 0.8837934 0.55884093 0.95633227
0000b0 fa f6 81 3f f8 9e 8c be 9a 62 b5 be 3e 7e fc be
       1.0153496 -0.27465034 -0.3542679 -0.49315065
0000c0 17 1f ed be 78 d4 1f 3f f8 28 ee bd 65 13 9b be
       -0.46312782 0.62433577 -0.11628908 -0.30288234
0000d0 42 c4 96 bf 3e 4d 01 be c8 67 64 3e f9 76 88 3d
       -1.1778643 -0.12627122 0.22305214 0.06663317
0000e0 d1 2b 50 be 25 1f 58 bf 8b f3 97 3f e2 ef 96 bf
       -0.20329215 -0.8442252 1.1871198 -1.1791956
0000f0 d8 ba 8a 3e e1 35 52 3f ac 6c 8e be 9b ed 42 bf
       0.27095675 0.8211346 -0.27817285 -0.7614381
000100 af 17 40 be d0 54 db be f0 d9 62 3f 98 49 89 3e
       -0.18759035 -0.42838144 0.88613796 0.2681396
000110 47 29 1d be c9 c7 00 3d 59 96 1d bf 77 ac bb bd
       -0.15347777 0.03144053 -0.6155754 -0.091637544
000120 fa 3a d9 3e b8 b6 91 be 45 bb 51 be 06 87 6d be
       0.42427808 -0.28459716 -0.20481594 -0.23196039
000130 c5 00 3d bf 29 15 34 3f ca f3 22 3f 38 13 13 bf
       -0.738293 0.7034479 0.6365324 -0.574512
000140 43 f6 23 3e 20 24 d5 be 49 96 08 bf 08 b1 f7 3f
       0.1601191 -0.41629124 -0.53354317 1.9350901
000150 32 ab 0d 3f a8 54 22 3f 82 8d 5d 3f 90 82 6a 3f
       0.5533935 0.63410425 0.8654405 0.9160547
000160 b8 50 e8 3f 42 37 9b 3f d2 79 01 3f 6f 24 01 bf
       1.8149633 1.2126238 0.5057651 -0.5044622
000170 4b 36 53 3e b8 29 fe 3d 66 c6 a9 3c 11 85 78 be
       0.2062618 0.12410301 0.020724487 -0.24269511
000180 97 60 82 3e 0d 3f f8 3e a4 a0 f2 3e 84 74 7f 3e
       0.25464317 0.48485604 0.47388184 0.24946791
000190 f7 0c 68 3f 19 2a 91 be f7 ee b4 bd 21 53 8b 3f
       0.9064478 -0.2835243 -0.088346414 1.0884744
0001a0 05 82 1f 3e 31 bb 95 3e 76 76 d6 3e 08 f6 28 be
       0.15576942 0.29244378 0.41887254 -0.16500103
0001b0 97 dd 0e bd 97 95 2f bf 6b f9 37 3f 95 f6 e2 3b
       -0.034879293 -0.6858763 0.71864957 0.0069263675
0001c0 47 ec c0 bd 08 f5 bc be b3 09 ea bc ab 1c 36 bf
       -0.09420066 -0.36905694 -0.028569078 -0.71137494
0001d0 4c 06 fa be 9d 6d 33 bf a4 4a a9 bd b2 4c 0e 3f
       -0.4883293 -0.7008913 -0.0826619 0.5558578
0001e0 b2 9f 00 bf ec 6e e9 be ad e5 b7 3d 31 ff bc 3e
       -0.50243676 -0.4559244 0.08979354 0.36913446
0001f0 79 da e7 3e 19 e8 a0 3d f1 a3 46 be 19 67 a0 bf
       0.4528387 0.07856769 -0.19398476 -1.2531463
000200 bb 41 b2 bf 85 6b fb 3e f2 4a 73 be d3 1f 5b be
       -1.3926309 0.49105468 -0.23759058 -0.21398859
000210 c6 d4 27 3e b0 e4 ed 3d 1b b4 e2 3e a2 f6 85 bf
       0.1638976 0.11615884 0.44278035 -1.0465891
000220 57 1b 0d 3f e0 61 5a 3f f4 3d 86 3f 5e 4c ff 3e
       0.5511984 0.85305595 1.0487657 0.4986295
000230 a6 96 25 3f a3 50 75 3f 31 45 72 3f 2b bb 30 3e
       0.64682996 0.95826167 0.9463683 0.17258899
000240 49 3b c1 3c 64 7c 0d 40 af 52 f6 3e 93 dd f8 3e
       0.02358784 2.2107172 0.48109958 0.48606548
000250 f6 6f 2b bf 0a 70 66 bf ee a5 68 3e 13 ff 9f 3f
       -0.66967714 -0.9001471 0.22719547 1.2499717
000260 8f c6 e5 be f1 8a 69 3f 60 09 17 3f da 44 8c 3f
       -0.4487805 0.9122763 0.5899868 1.0958512
000270 56 2c 0f 3f 1e 18 1b 3f b0 99 58 bc 95 f7 b4 3e
       0.55927026 0.60583675 -0.013220236 0.3534514
000280 d4 1a 6a 3e f4 44 a4 bd 18 fb 02 3f b9 6d c9 be
       0.22861797 -0.08020964 0.5116439 -0.39341524
000290 7f 72 91 3e 2b 4b 20 3f a9 6e c7 3e 84 20 3e 3f
       0.28407666 0.626147 0.38951614 0.74268365
0002a0 81 c2 d2 be 94 62 fb 3d b7 91 af be 6d 1b 3b bf
       -0.4116402 0.12274662 -0.3429086 -0.73088723
0002b0 0f 4b 40 bf fb 57 90 be ab 26 37 bd be ee c7 3d
       -0.7511453 -0.28192124 -0.04471461 0.09762333
0002c0 1e 3c e5 3d 21 1f ed bd 2b 08 45 3f 60 2d 0b 3e
       0.11193107 -0.11578203 0.7696559 0.13591528
0002d0 85 5f 4e 3d b2 ca 63 bf bb 12 b6 be a3 55 3f be
       0.050384063 -0.88981164 -0.35561165 -0.18685012
0002e0 f0 43 ea bd 48 28 23 bf 81 1f 18 3f 3d 27 c7 3f
       -0.11438739 -0.6373334 0.5942307 1.555885
0002f0 d8 bd 9a be 74 fc dd 3e 43 8e 77 bf d1 e4 21 3f
       -0.30222964 0.4335667 -0.9670145 0.6323977
000300 07 c2 87 bf 98 a5 26 bf 3c 0d 13 3f cc 23 9f be
       -1.0606087 -0.65096426 0.5744207 -0.31081998
000310 65 df b7 3d ca ac 58 3f c0 f3 1b 3f 6f 31 e1 3f
       0.08978156 0.84638655 0.6091881 1.7593211
000320 ad 3a 1d 3e 2e 98 a0 3e 6e 1e 91 3f 7e 3c 8f 3e
       0.15354414 0.31366104 1.1337411 0.2797584
000330 5f 7c 1f be 49 7f 5c 3f 8e e9 95 be 51 01 95 be
       -0.15574788 0.8613172 -0.2927975 -0.29102567
000340 9f af e0 be 4a 57 4b 3e 5e 64 21 3f c3 1d f7 3e
       -0.43883988 0.19857517 0.63043773 0.48264894
000350 69 be a0 3f 4d 42 51 bf d2 05 4e 3e aa 8b 5f be
       1.2558109 -0.8174179 0.20119408 -0.21830621
000360 d1 5e b4 3e fa 80 79 3f 55 f8 1a 3f 00 91 a7 3e
       0.3522859 0.9746243 0.60535175 0.32727814
000370 4f aa 07 3d 66 11 3f bc ed 2f b7 3e 3d 61 27 bc
       0.033121403 -0.011661863 0.35778752 -0.0102160545
000380 9c 8a a3 3e 9c e0 6c be 28 b0 41 3e 42 d7 fc 3e
       0.31941688 -0.23132557 0.18914855 0.4938298
000390 9e 7d 60 bf bc 9e b3 3e 8c 00 c8 be 43 50 84 bf
       -0.87691677 0.35082042 -0.39062917 -1.0336994
0003a0 e0 01 f6 bd 5a 0a bb 3d cd 03 70 bf b2 ff a7 3e
       -0.120120764 0.09132834 -0.937558 0.32812268
0003b0 2b 93 a3 be ac 15 56 3f 59 1e 80 be 87 49 8b 3c
       -0.31948218 0.8362682 -0.25023153 0.017002834
0003c0 73 a7 4a 3f 47 4a 2e 3e 98 89 0f 3f 6e 9d dd be
       0.7916176 0.17020522 0.56069326 -0.43284172
0003d0 56 a1 a0 3e 17 23 90 be e4 ff 4a bf 9b 69 6c 3e
       0.3137309 -0.2815177 -0.7929671 0.2308716
0003e0 c8 9d 37 3f fd 91 e4 3d 5f 30 69 bf 34 6b 02 3f
       0.7172513 0.111606576 -0.91089433 0.5094483
0003f0 d2 26 47 3c 74 e0 56 3f 01 6c 8b 3f fb 76 97 bf
       0.012155252 0.8393624 1.0892335 -1.1833185

lstm.weight_hh_l0 f4 [512, 128]
000000 60 ae 15 3f f4 1a c3 be 17 7b 25 bf 87 88 e2 3e
       0.584692 -0.381065 -0.64640945 0.44244787
000010 2e b9 b2 3e 94 a0 87 3c bf 11 31 bf 89 db a7 3e
       0.34906906 0.016556062 -0.69167703 0.3278468
000020 fb 9b 9b 3f 70 9d a0 be 9b da c2 be 1f c1 05 3f
       1.2156976 -0.31370115 -0.38057408 0.52247804
000030 59 eb 17 3e 1a b0 e8 be 70 17 58 be 1d b7 1a 3d
       0.14835872 -0.45446855 -0.2110269 0.037772287
000040 29 1f 21 3f f9 a8 7d 3e eb fe fe 3e 5b ef 27 be
       0.6293817 0.24771489 0.49803862 -0.163999
000050 c8 6f b2 be 4c a9 82 bd 71 b7 c5 be 9c c8 1c 3f
       -0.34850907 -0.06379947 -0.38616517 0.61243606
000060 e1 04 9f be 70 fe 2a 3f e8 58 13 3f bc 0b 4b 3d
       -0.3105841 0.6679449 0.57557535 0.049571738
000070 e8 2e 40 3e 02 a0 c7 3d c8 c7 9d bd a1 ed 7b 3e
       0.18767893 0.09747316 -0.07704121 0.24602367
000080 e7 0e a0 be 0c a0 00 be 4d a9 02 3f ba aa 49 3e
       -0.3126137 -0.12561053 0.5103958 0.19694033
000090 92 e0 b5 be cd f6 82 3e 9d e2 7e 3e 25 0d a3 be
       -0.35522896 0.2557892 0.24891134 -0.31845966
0000a0 da 79 1d bc 82 cc 9d 3e 88 4d b8 be b7 54 ed 3e
       -0.009611571 0.3082009 -0.35996652 0.46353695
0000b0 3e 13 a1 3e 57 13 a9 be 33 d3 08 3e c7 3a ce 3e
       0.31459993 -0.33022568 0.13361816 0.4027922
0000c0 fe f6 f5 3e d0 8b 68 bd f1 79 53 be de 45 66 be
       0.48040003 -0.05677396 -0.20651986 -0.2248759
0000d0 0a f2 ff bc 1b 1a 75 be 4f 97 14 be 7b dc 73 3d
       -0.031243343 -0.2393574 -0.14510845 0.05953644
0000e0 87 4a 6f bf 87 13 d1 be 3c 0d 86 3e fd 10 b1 bd
       -0.93473095 -0.4083521 0.26181972 -0.086458184
0000f0 94 77 9f 3e 1b 87 73 3e e9 78 7c bd a1 dc 74 be
       0.31145918 0.23782007 -0.061638746 -0.23912288
000100 52 42 0a 3e 81 58 f6 3c 6b 97 92 3e 50 3e 70 3d
       0.13501862 0.030071499 0.28631148 0.058653176
000110 e6 10 18 bf 93 55 44 3f ed 01 bb bb ec 20 94 3e
       -0.59400785 0.76693076 -0.0057070167 0.28931367
000120 99 66 ba bd 87 a3 14 bf 3e 0e 27 3e d7 5f ae 3c
       -0.091016 -0.5806202 0.16314027 0.021285934
000130 de 1c 01 bf 04 48 7b 3e 60 4d 80 3e 93 be 41 be
       -0.5043467 0.2453919 0.25059032 -0.18920355
000140 59 bd 0e bf 71 f3 5c 3f 68 fb 01 be dc cc 73 3e
       -0.5575767 0.8630896 -0.1269356 0.23808616
000150 98 33 5a 3f 8e de 4f 3e fe e2 1a 3f 23 a7 68 bd
       0.85234976 0.20299742 0.6050261 -0.05680002
000160 22 eb 22 3e e7 8a 86 3c c1 1f 4c 3e 42 a2 3e bd
       0.15910009 0.016423656 0.19933988 -0.04654146
000170 cc f7 bc bd ce be 76 be 30 80 cc 3e 9e d0 0b be
       -0.09226951 -0.24096224 0.3994155 -0.136538
000180 e5 76 26 3f 9c c2 88 be 72 cc 00 3f 6f 95 90 bd
       0.6502517 -0.26710975 0.5031196 -0.07059752
000190 82 6c 03 be 87 8e ef bc 6e e4 01 bf 81 df 00 bd
       -0.12834361 -0.029242767 -0.5073918 -0.03146315
0001a0 56 b9 0d 3e 92 a8 92 be 6a 40 b9 3e a8 66 91 3e
       0.13840231 -0.28644234 0.36181957 0.28398633
0001b0 75 d8 9c 3e b2 9d 93 3e 85 e9 7a be 42 5b 5d be
       0.30633894 0.2883125 -0.24503143 -0.21616843
0001c0 e6 22 84 3e 61 e8 17 3e 5b aa 3b 3f e0 f7 a2 be
       0.25807875 0.1483474 0.73306817 -0.3182974
0001d0 a4 47 64 be 53 22 b7 be a9 53 ff bd 0e a2 24 bf
       -0.22292954 -0.35768375 -0.12467129 -0.64309776
0001e0 f3 e6 b9 be d3 89 a5 3e d2 37 e9 3d 35 28 89 be
       -0.36309013 0.32331714 0.113876 -0.26788488
0001f0 29 9a ca be f1 e5 80 be 2e a3 6e be 42 7c 2b be
       -0.3957074 -0.2517543 -0.23304436 -0.1674662
000200 0e c6 c2 3d fe f3 10 3f 2c 8a d6 be fc fb a3 bd
       0.09510432 0.566223 -0.41902292 -0.080070466
000210 35 2e 31 bd 39 c9 3f be 82 ef 98 bd 48 dd 00 bf
       -0.043256957 -0.18729104 -0.074675575 -0.5033765
000220 ad ab 47 3f 9f a4 02 bf ad ac be be 79 50 5a be
       0.7799633 -0.5103244 -0.37241116 -0.2131976
000230 5f 14 d4 3e 6e 54 9a 3d 25 c9 a5 3c 75 f8 c3 bc
       0.41421792 0.07535635 0.020237515 -0.023922184
000240 c4 1d 09 bf ad b4 ba bc 5a 83 3f bf f3 ab e9 3e
       -0.53561044 -0.022791231 -0.748098 0.45639
000250 08 ad 1a bd e4 87 27 be 68 37 1a be e1 1c 00 3c
       -0.03776267 -0.16360432 -0.15060198 0.007819385
000260 1b cb 92 be 23 38 99 3e 17 b5 dc 3c 6f 6c fa 3d
       -0.28670582 0.2992564 0.02694182 0.12227713
000270 43 7a 1f 3f 01 a3 b8 be fa 39 bd 3e aa 7c 77 3e
       0.6229593 -0.36061862 0.36958295 0.2416865
000280 2e 13 73 be 7a fe 1d be e0 75 c6 be 41 c3 1f 3e
       -0.23737785 -0.15429106 -0.38761806 0.15601827
000290 2f fc 30 bf ff 34 2b 3f 2d 5d 73 3e 92 84 7c bd
       -0.691348 0.6687774 0.23766012 -0.061649866
0002a0 c0 49 4b 3e 0c b8 d1 be 39 fd 95 3d bb a3 6d be
       0.19852352 -0.4096073 0.07323689 -0.2320699
0002b0 5d ae c8 3e 69 0b 06 bf 12 54 5a be 2c 09 0d 3f
       0.3919553 -0.5236116 -0.21321133 0.5509212
0002c0 ca 63 b4 3d 46 37 a3 be 84 f1 49 bd e0 38 15 3f
       0.08808096 -0.31878108 -0.049302593 0.5828991
0002d0 37 c7 8c bd a0 6a 92 3e f6 93 bf bd 34 16 54 bd
       -0.06873935 0.28596973 -0.09354393 -0.051778987
0002e0 68 36 29 3d bb d3 4a be fb 9d 91 3d 10 47 df be
       0.04131165 -0.19807331 0.071102105 -0.43608904
0002f0 ce 38 60 bf 00 80 3c be e8 3b 1f 3e 45 3e 9f bd
       -0.8758668 -0.18408203 0.15550196 -0.07775549
000300 20 17 83 be 0e 0f 5c be ff 77 09 3e 2d 27 32 3e
       -0.2560358 -0.21490118 0.13424681 0.17397757
000310 d9 89 8e 3b cb b5 c8 bd 4a 44 83 3e f0 9b 6e 3e
       0.004349929 -0.09800299 0.25638038 0.23301673
000320 52 b1 28 be 95 a3 d4 be 62 96 5d bc d0 29 ae bd
       -0.16473892 -0.41531053 -0.013524624 -0.08504069
000330 cc 1a d1 3c 6a 38 ec bd 8e 6f 33 3e 90 a2 cc 3e
       0.025525473 -0.11534198 0.17523023 0.39967775
000340 55 ac e2 be d7 52 f4 be 6f 4c 60 be 0f 08 33 3c
       -0.44272104 -0.47719452 -0.21904157 0.010927214
000350 45 6f 38 3f 85 bc 9b be e7 33 21 bf 1c ac fc bc
       0.72044784 -0.30417266 -0.6296982 -0.030843787
000360 72 a7 06 3f fd 58 b8 3e 82 63 0f 3f 72 e7 1b 3e
       0.5259925 0.36005393 0.5601121 0.15225008
000370 60 51 8b 3c cc a1 9a bd d4 3b 97 bd 26 1e a6 3e
       0.017006576 -0.075503916 -0.07384458 0.32444876
000380 e5 e6 ae 3e b0 1c cf 3e 06 03 c9 3d 91 9a a2 bd
       0.34160534 0.40451574 0.0981503 -0.079396375
000390 1c f5 ef bd 53 30 e1 3d 39 66 59 3e 3c e8 0e bf
       -0.11716673 0.10995545 0.21230401 -0.5582311
0003a0 d5 28 97 3e 60 75 08 3f 76 53 2a bf f8 58 29 bd
       0.2952334 0.533041 -0.665336 -0.041344613
0003b0 83 82 f9 bd c8 d5 2e 3f fe 98 26 3e 6f b3 5e 3e
       -0.12183096 0.68294954 0.162693 0.21748136
0003c0 83 8b aa be 5f d8 24 3f ff f7 8e 3e b1 cb a4 3c
       -0.33309564 0.64392656 0.2792358 0.020116659
0003d0 0b 96 62 be 0b 31 35 3d 60 1f 77 bd 45 4a ca 3d
       -0.2212755 0.044236224 -0.060332656 0.09877447
0003e0 62 d7 25 bc 83 0e e7 bd d6 61 03 bb 3e 21 ed be
       -0.010122152 -0.11282065 -0.0020047328 -0.46314424
0003f0 35 e2 39 3e f3 b9 a1 bd fd 19 3f 3e c4 b9 9f be
       0.18152697 -0.07896795 0.18662257 -0.31196415

lstm.bias_ih_l0 f4 [512]
000000 73 22 c8 be d8 6a 22 bf dc 2b 51 be 0b d9 2e bd
       -0.39088783 -0.6344428 -0.20426887 -0.042687457
000010 93 57 98 be b1 4f ae be ff b0 8d be 70 f4 23 bf
       -0.29754314 -0.34045175 -0.276741 -0.6404486
000020 66 39 dc be c9 e0 83 be 40 c9 0f bf 72 6a 34 bf
       -0.43012542 -0.25757435 -0.5616646 -0.7047492
000030 10 cf 3b bf 21 07 09 be 29 1e d9 bd 0e c2 14 bf
       -0.7336283 -0.13381626 -0.10601456 -0.58108604
000040 38 e8 dd be c4 34 32 bf bd 93 9c be 17 b8 8a be
       -0.4334123 -0.69611764 -0.30581465 -0.27093574
000050 89 7f be be 71 a4 0c bf ef 82 8b be 11 a5 eb bd
       -0.37206677 -0.5493842 -0.27248332 -0.11506093
000060 71 11 05 be e1 07 ee be b9 16 ac be 51 54 63 be
       -0.12994935 -0.46490386 -0.33611086 -0.22200133
000070 56 a3 a5 be d7 3c e6 be 8f 02 44 be 64 30 92 3d
       -0.32351178 -0.44968292 -0.19141601 0.07138136
000080 7b 7d d6 be 6c b1 80 be 30 11 79 be 8c 24 9c be
       -0.4189261 -0.25135362 -0.24322963 -0.30496633
000090 21 2f 80 be a6 e3 fc be 84 7d 03 be 6a 2e b6 be
       -0.25035957 -0.49392432 -0.12840849 -0.35582286
0000a0 0f 6a c4 be d9 2b 99 be 1e f5 33 be c0 5e 27 be
       -0.38362166 -0.29916266 -0.17573974 -0.16344738
0000b0 69 86 eb be 06 67 bc be fb eb eb 3d 1a b7 2c bf
       -0.46000984 -0.3679735 0.11519619 -0.6746689
0000c0 0f 5d 51 be 72 bb f5 be 14 99 9b be 81 2f a3 be
       -0.20445655 -0.47994572 -0.30390227 -0.3187218
0000d0 33 c8 79 3c 54 ad 4b bf e9 d2 af be dd b5 0e bf
       0.015245485 -0.7956135 -0.343406 -0.5574625
0000e0 5c a0 18 bf 19 80 f6 be 76 a1 08 bf 90 46 af be
       -0.5961969 -0.48144606 -0.5337137 -0.34233522
0000f0 cf 8f f2 be 2e e3 74 be 16 05 14 bd 85 96 22 be
       -0.47375342 -0.23914787 -0.036137663 -0.15877731
000100 d3 36 51 bf a4 35 54 be 6c fb f9 be 1e c7 07 bf
       -0.8172428 -0.20723587 -0.48824632 -0.53038204
000110 2b 3e 0c bf 64 19 88 3d 81 7d be be f1 52 a4 be
       -0.5478236 0.06645468 -0.37205127 -0.3209453
000120 76 07 39 be 84 e8 80 3c 27 26 f1 be ca ac ff be
       -0.18069252 0.015735872 -0.4709942 -0.49936515
000130 90 28 a0 be 26 1d 23 bf ea f5 bb be 21 3a 57 be
       -0.31280947 -0.6371635 -0.36711055 -0.21018268
000140 fe 9d c9 be 69 78 20 bf 38 d4 fb be 78 15 70 bf
       -0.3937835 -0.6268373 -0.49185348 -0.9378276
000150 bb b7 05 be 4c ed 48 be 19 cb 87 bf 6c bf e3 be
       -0.13058369 -0.19621772 -1.0608855 -0.4448198
000160 f1 e4 74 be 11 93 33 bf 84 96 26 be 08 0e 96 be
       -0.23915459 -0.7014628 -0.16268355 -0.2930758
000170 04 4b 4c bf fd 28 e6 be a6 ef 17 bf df 7c ad be
       -0.79801965 -0.44953147 -0.5935005 -0.33884332
000180 c5 72 46 be 8c 97 cb be 34 84 4c 3e 8a e0 8a be
       -0.19379719 -0.3976406 0.19972306 -0.27124435
000190 bd 94 f3 bc 6f eb dd be e1 49 b6 be 43 84 ff be
       -0.02973401 -0.43343684 -0.3560324 -0.49905595
0001a0 24 ff 86 be 8d 0d a2 bd 32 13 1e bf 2b 89 0f be
       -0.26366532 -0.07912741 -0.6174804 -0.14017169
0001b0 48 5d 85 be ef 13 da be a3 eb 6a be 58 a8 ff be
       -0.2604773 -0.42593333 -0.22941451 -0.49933124
0001c0 05 13 8b bf d0 e5 8c be 4c 38 05 bf 9f dd 04 bf
       -1.0865179 -0.27519083 -0.5203903 -0.51900667
0001d0 9f fa dd be 83 66 bf be 63 75 ce bd 80 6d 7b be
       -0.4335527 -0.37382898 -0.100809835 -0.2455349
0001e0 62 3d 5d be 56 1b de be 7a 3f f8 be 52 9f 90 be
       -0.21605447 -0.4338023 -0.4848593 -0.28246552
0001f0 65 ab db be c2 30 12 bf 02 3d b2 be ea e7 ee be
       -0.429042 -0.5710565 -0.3481217 -0.4666131
000200 c8 67 0b 3e 7a d4 2a be f9 79 71 3e 76 1e a5 bd
       0.13613808 -0.16682616 0.23581685 -0.080624506
000210 9a 06 26 3e 5b 8e d1 bd 15 f1 a3 be dd c9 ce 3d
       0.16213456 -0.1023223 -0.32019868 0.10097096
000220 37 bb d1 3d 43 c1 1d 3d 31 6d 84 3d 97 ed 94 3e
       0.102407865 0.038514387 0.06466139 0.29087517
000230 4b 22 01 be 9f c9 20 be fe 20 98 be af c2 07 be
       -0.12610738 -0.15701912 -0.2971267 -0.1325786
000240 d6 ed 4a bd 3b e3 80 be 3e d0 03 bc 43 e7 a1 be
       -0.049543224 -0.25173363 -0.008045254 -0.3162175
000250 66 32 9e 3d 48 9c 35 be 30 79 a0 be 48 0b ca bd
       0.077244565 -0.17735398 -0.3134246 -0.09865433
000260 23 c4 9c bd 25 d5 9d bd 36 2d 3c be d8 2a 63 3e
       -0.076545976 -0.0770667 -0.18376622 0.22184312
000270 f8 7f 2c 3e d2 d0 8f 3e 74 fd 19 3e 26 d9 36 be
       0.16845691 0.28089005 0.15038091 -0.17856273
000280 c5 4f 1f 3f d6 db 80 bd 07 f6 eb 3d eb 81 55 be
       0.62231094 -0.062919304 0.11521535 -0.20850341
000290 fe 4d 3c be 5f 6a c7 be ef 60 96 be b1 40 12 3f
       -0.18389127 -0.38948342 -0.2937083 0.5712996
0002a0 68 f7 36 3e f9 db 4c 3e 61 28 7b be 65 11 72 bd
       0.17867815 0.20005788 -0.24527122 -0.05909862
0002b0 ed 30 84 3d 2a 68 c8 be 85 2a 54 be 9b 60 2f 3f
       0.06454644 -0.3914197 -0.20719345 0.68506783
0002c0 5d ba f8 bd 33 ae 00 3d c0 fc 57 be 59 fc 27 be
       -0.12144921 0.03141613 -0.2109251 -0.16404857
0002d0 0d a8 8d be c4 ad 16 bd fe fe 86 bc 2c b8 57 be
       -0.27667275 -0.03678681 -0.016479012 -0.2106635
0002e0 6f c9 8a 3d 69 d8 44 bd 26 88 24 bc e3 96 88 3e
       0.06776702 -0.048057947 -0.010042226 0.26677617
0002f0 1f ca c6 3d 8b d3 7d bd 19 17 85 3e 69 19 6e 3e
       0.0970652 -0.06196932 0.25994185 0.2325188
000300 00 3c e2 bc 76 2a 11 3e 6f ae 93 3e f4 99 17 be
       -0.0276165 0.14176354 0.2884402 -0.14804822
000310 19 a3 63 3e 8f 9c 23 bd ee b4 74 3d 7a 96 b6 be
       0.22230186 -0.039944228 0.05974286 -0.3566168
000320 59 20 db 3d d6 30 63 be 11 a1 57 3c 33 0b 91 3e
       0.10699529 -0.22186598 0.01316096 0.28328857
000330 1e a8 95 3d 46 cb 87 3d f7 34 70 3e c2 ca 57 3e
       0.073074564 0.06630568 0.23457704 0.2107344
000340 aa d3 b3 be c3 c6 30 be f6 71 4b 3e 11 a9 e1 be
       -0.35122424 -0.17263322 0.19867691 -0.440743
000350 9e 8e 57 be cf a8 e9 bd 73 db c4 be 09 60 ce 3e
       -0.21050498 -0.11409151 -0.38448676 0.40307644
000360 72 1b 86 bc 37 ba ab bd 4e d5 59 bd f5 4a 52 be
       -0.016370509 -0.08385127 -0.05318194 -0.20536406
000370 6e fe 8c be 43 f8 94 be 96 9c 04 bf e5 c0 bd bd
       -0.27537864 -0.2909566 -0.5180143 -0.09265307
000380 dd 05 2d be 4a fd 36 3c e1 e1 91 be d2 d7 ab bd
       -0.16896768 0.011168787 -0.28492644 -0.08390774
000390 b8 68 30 bd f5 f6 c3 bd 9c 65 ab be 9b d6 15 be
       -0.043068618 -0.09568588 -0.3347596 -0.14632647
0003a0 7b 41 84 3e a2 a5 8d bd fd 5a cd 3d e1 fa b0 bd
       0.25831208 -0.069163576 0.1002712 -0.08641601
0003b0 ff a2 46 3e aa 2b e8 3d 28 d7 82 be d7 af 36 be
       0.19398116 0.11336453 -0.25554776 -0.17840515
0003c0 10 6f 80 bd 92 83 78 3e d1 2a 9e 3e 22 8b 6a 3e
       -0.062711835 0.2426894 0.3089204 0.22904637
0003d0 28 ba 1c 3e a1 39 8f bd 62 8d 0f 3e 7a b1 85 3e
       0.15305388 -0.06993414 0.14018777 0.26111966
0003e0 21 68 b1 3e db 28 bf 3e 05 49 dd be 98 dd cd 3c
       0.34649757 0.37335858 -0.43219772 0.025130078
0003f0 b5 35 81 be 79 ea f2 3b 9e 6a e4 bd 2f a7 48 be
       -0.25236288 0.007413205 -0.11153148 -0.19595025

lstm.bias_hh_l0 f4 [512]
000000 2f 83 88 be df 97 1b bf 0d df 9b be ad 07 da bd
       -0.26662585 -0.6077861 -0.30443612 -0.10645995
000010 a0 b6 d3 be b1 15 97 be 27 00 5d be d3 a6 03 bf
       -0.4135027 -0.29508737 -0.2158209 -0.5142643
000020 df 76 9c be 8a 40 87 be 78 0b e3 be b5 6f 37 bf
       -0.3055944 -0.26416427 -0.44344687 -0.71654826
000030 9a 34 38 bf de b1 e1 bd 1e 1b c0 bd 3b a7 05 bf
       -0.71955264 -0.110202536 -0.09380172 -0.522083
000040 67 f4 cb be 97 71 3e bf a4 6d eb be 58 5b 98 be
       -0.39834902 -0.74392074 -0.45982087 -0.2975719
000050 fa a5 b5 be 7c 1b 25 bf df 71 7e be 3b a1 17 bd
       -0.35478193 -0.6449506 -0.24848126 -0.037018996
000060 01 2c 52 be 55 c7 fb be 0a 02 b5 be b4 aa 2f be
       -0.20524599 -0.49175516 -0.35353118 -0.17154962
000070 84 80 a7 be ea 1f 02 bf ca 53 a6 be 7b 9b 08 3e
       -0.32715237 -0.50829947 -0.324858 0.13340561
000080 ef a0 d7 be a8 ab 89 be 20 68 10 be 14 89 b4 be
       -0.4211497 -0.26888776 -0.1410222 -0.35260832
000090 fd 1a 58 be a0 97 e2 be 4e 3a c5 bd 31 f2 c8 be
       -0.21104045 -0.44256306 -0.09630261 -0.39247277
0000a0 7f 8b f1 be c1 cf 75 be 59 1f a5 bd 01 61 da bd
       -0.4717674 -0.24005033 -0.0806262 -0.10663033
0000b0 4e 90 ee be 72 a1 e5 be c3 5f 3d 3e 64 df 17 bf
       -0.4659447 -0.44849735 0.18493561 -0.5932524
0000c0 3b c4 62 be 6a 56 fd be ee e9 81 be 93 a7 d1 be
       -0.22145168 -0.4947999 -0.25373787 -0.4094816
0000d0 51 c6 ab bc 45 91 3b bf dc 58 ba be af 04 fc be
       -0.020968588 -0.7326854 -0.3639592 -0.49222323
0000e0 88 ba 14 bf d1 a8 1d bf 48 67 e5 be 6e 30 90 be
       -0.58097124 -0.6158572 -0.4480536 -0.2816195
0000f0 52 dc f4 be 6d 53 a5 be f0 8f ab bd bd 6a 79 be
       -0.4782434 -0.3229021 -0.08377063 -0.24357124
000100 60 f4 36 bf 25 b3 f8 bd f1 0f e8 be 4c 07 25 bf
       -0.71466637 -0.12143544 -0.45324662 -0.6446426
000110 be 3e 18 bf d3 3a 63 3d 28 76 ac be 3b b4 9d be
       -0.59470737 0.05547602 -0.33683896 -0.30801567
000120 dd fc 23 be de 6f 2e 3e 67 a4 00 bf 53 eb d0 be
       -0.16014428 0.17034861 -0.5025086 -0.40804538
000130 8a de 7b be b8 5a 15 bf f7 c6 89 be ae 6f 0d be
       -0.2459661 -0.5834155 -0.2690961 -0.13812134
000140 20 0a b5 be 9f dc 2f bf af fd c8 be c0 84 52 bf
       -0.35359287 -0.68696016 -0.39256045 -0.8223381
000150 3c b1 3f be 81 ab 7f be f4 ad 85 bf 69 61 d7 be
       -0.18719953 -0.24967767 -1.0443711 -0.42066506
000160 3f 42 4a be 0c a6 2f bf 59 f4 4d be 99 4e ad be
       -0.19751833 -0.6861274 -0.20112742 -0.33849028
000170 27 2c 4c bf 8d 95 cf be c4 d1 1f bf a4 e5 87 be
       -0.7975487 -0.40543786 -0.6242945 -0.2654239
000180 fe 1a 0c be 7e f8 ac be 33 d9 3e 3e df 9e 88 be
       -0.13682172 -0.33783334 0.18637542 -0.2668371
000190 f0 a7 13 be d6 dc e1 be 9b 2f d0 be 46 41 ed be
       -0.14419532 -0.44113797 -0.4066132 -0.46338862
0001a0 ef fc 98 be b6 5e 1e bd 75 8e 14 bf 34 29 73 be
       -0.29880473 -0.038664542 -0.5802987 -0.23746186
0001b0 64 d9 b3 be 9d 2e d9 be 35 dc 94 be dd 6b d5 be
       -0.35126793 -0.42418376 -0.29074255 -0.41683856
0001c0 db cc 7b bf 71 de 5a be 12 e4 14 bf 6b c5 07 bf
       -0.9835946 -0.21373917 -0.5816051 -0.5303561
0001d0 9f 25 f2 be 05 1c 83 be 1c a8 7c be ac 0e e0 bd
       -0.47294328 -0.25607315 -0.24673504 -0.109402984
0001e0 3e d7 a8 be 8a 03 eb be 74 55 cf be 6e f8 a7 be
       -0.32976717 -0.45901138 -0.40494883 -0.32806724
0001f0 a7 d0 d9 be 9e 89 02 bf a2 db 9c be 54 d8 db be
       -0.42542002 -0.5099124 -0.30636317 -0.42938483
000200 57 56 a2 3c 3d bf 3b be 40 e7 9c 3e 1f e2 07 be
       0.01981656 -0.1833467 0.3064518 -0.13269852
000210 59 f0 80 3e 3e 14 0e bd 84 56 a7 be b4 33 cb 3d
       0.2518337 -0.034687273 -0.32683194 0.09921971
000220 02 c3 c7 37 0f 45 3d bd d2 37 0f 3e 0a 91 98 3e
       2.3813456e-05 -0.046208438 0.13986138 0.29798156
000230 2e 05 0a be fc 76 0a be 9f 75 94 be 17 29 78 bd
       -0.13478538 -0.13521951 -0.28995988 -0.06058606
000240 ac 08 52 bd b9 6f 69 be 3a 05 13 be fd 2a 84 be
       -0.0512778 -0.22796525 -0.14357463 -0.25814047
000250 44 ad 14 3c b6 02 6d be 64 0c b7 be 0a eb d2 bc
       0.009074513 -0.23145565 -0.3575164 -0.025746841
000260 ca d1 74 bd 7f 40 06 be e2 cb 27 be 8d a9 11 3e
       -0.059770383 -0.13110541 -0.16386369 0.14224835
000270 9d a8 0e 3e 51 62 9b 3e 0f 96 4d 3e 1f 31 28 be
       0.13931508 0.30348447 0.20076774 -0.16424988
000280 fa 39 16 3f f7 64 32 be 4c 58 09 bc 03 0a 6d be
       0.58682215 -0.17421328 -0.008382868 -0.2314835
000290 fe 24 54 be 4a 4b 8b be ed 28 8f be 2e 0a 15 3f
       -0.20717236 -0.27205878 -0.2796091 0.5821866
0002a0 2f d0 0e 3e c1 00 1b 3e cc 39 73 be 45 d9 de bd
       0.13946603 0.15137006 -0.23752517 -0.108812846
0002b0 a3 1c 22 3e 47 69 a9 be 91 66 a7 bd a3 d4 20 3f
       0.15831237 -0.33088133 -0.0817386 0.6282446
0002c0 f7 4d e3 bd 62 ef b0 3d bf b0 30 be 62 32 94 be
       -0.11098855 0.08639409 -0.17254923 -0.2894469
0002d0 a9 a3 d1 bd ee b4 3c 3d fe e9 ff bd 12 39 da bd
       -0.10236294 0.046070985 -0.12495802 -0.106554165
0002e0 b5 98 05 3d 9c 39 49 be ed 80 f6 3d 8b e7 ad 3e
       0.032616336 -0.19650882 0.120363094 0.33965716
0002f0 06 3c 0d 3e 2c 83 ad 3d eb 11 6e 3e e5 7e 63 3e
       0.13792428 0.08472285 0.23249023 0.22216375
000300 d8 d6 24 bc 40 78 fc 3c 83 ff 7e 3e 30 9c 30 be
       -0.010060988 0.030819058 0.24902157 -0.17247081
000310 c6 9f 28 3e 75 bd 94 bc 26 c1 68 bd c8 42 e1 be
       0.16467199 -0.018156746 -0.056824826 -0.43996263
000320 2a 1b a3 3d 5a 98 1f be b7 25 8d bd 63 e3 2e 3e
       0.079641655 -0.15585461 -0.06891959 0.17078929
000330 17 14 1a 3d 23 9b 91 bc 8a 1e b8 3e 31 22 55 3e
       0.037616815 -0.01777417 0.359608 0.20813824
000340 fc 78 ce be af 81 01 be c4 93 3b 3e b1 89 fb be
       -0.4032668 -0.12647127 0.18318087 -0.49128488
000350 1f 2c 0b be b0 56 c1 bd e4 cd 8a be 9b 17 ac 3e
       -0.1359105 -0.094403625 -0.27110207 0.3361176
000360 3c f8 38 be f4 96 9e bd 12 97 de bd bc 89 89 be
       -0.18063444 -0.07743636 -0.10868658 -0.26862895
000370 a5 ca 95 be 08 05 cd be be 31 f4 be 47 fb bf bd
       -0.29256168 -0.400429 -0.476942 -0.09374099
000380 18 63 95 be ba e8 cf bc fb 34 1a be 6f c3 e2 bd
       -0.29177165 -0.025379527 -0.15059273 -0.11072432
000390 1a 53 71 bd 03 e2 92 3b b8 f0 54 be 8b 77 06 be
       -0.058917142 0.004482509 -0.20794952 -0.1313154
0003a0 f3 d0 89 3e c1 54 21 be 43 2a 12 3c 3e 08 ea bd
       0.26917228 -0.15754987 0.008921209 -0.11427353
0003b0 b5 da ba 3d 8d 32 1d 3e 94 b2 d3 bd 79 89 11 be
       0.09123746 0.15351315 -0.103367954 -0.14212598
0003c0 a8 ad 43 be f8 ba 8d 3e 30 5a 5b 3e 19 42 93 3e
       -0.19109213 0.27681708 0.21421123 0.28761366
0003d0 f2 32 17 3e ef 27 79 3b 5b 37 4f 3e 2a 7d bd 3e
       0.14765528 0.0038018187 0.2023596 0.37009555
0003e0 89 d3 ae 3e 34 e1 cc 3e 1b 20 ca be 73 40 8e bd
       0.34145764 0.40015566 -0.3947762 -0.069458865
0003f0 5a 5a a7 be 90 92 f0 bd 71 40 a5 ba e0 ca 86 be
       -0.3268612 -0.117467046 -0.0012607706 -0.26326656

hidden2Cat.weight f4 [6, 128]
000000 0b 9a a6 bf d7 09 c5 3f 8c 3a b3 bf d3 8e 47 bf
       -1.301576 1.5393628 -1.4002242 -0.7795231
000010 cf 9e b4 bf 3b de d0 3f d4 bb 0c 3f df f8 a1 bf
       -1.4110965 1.6317819 0.549741 -1.2654074
000020 36 d9 1e 3e ea 63 6c 3f 7e 3e 91 be 48 47 88 3d
       0.15512547 0.92339957 -0.2836799 0.06654221
000030 35 43 84 3e 95 e2 9a 3e 11 64 fe be 2d 34 76 be
       0.25832525 0.30250993 -0.4968572 -0.24043341
000040 42 fc ec bf 57 47 19 3f cc 6b c0 bf 5f 38 6d 3f
       -1.8514483 0.5987448 -1.5032897 0.9266414
000050 87 3f 8a 3f 73 c2 4b bf 21 ce a6 bf a9 9c 25 40
       1.0800637 -0.7959358 -1.3031656 2.5876868
000060 cf ef 1a 3e 5c af e0 3f 69 60 e6 3b fd f4 a4 3f
       0.15130542 1.7553515 0.007030536 1.2887264
000070 6a 48 2a be 6c a9 82 bf 18 ab 9b bf ef 39 a2 3f
       -0.16629186 -1.0207953 -1.2161589 1.267393
000080 44 14 71 3e 38 ef 0b bf 33 76 58 bf f1 bd 32 bf
       0.23542887 -0.54661894 -0.8455536 -0.6982108
000090 54 96 77 bf 17 33 d1 3e ed 21 16 bf b7 c6 ac bf
       -0.9671376 0.4085929 -0.58645517 -1.3498143
0000a0 00 73 8a bf 6c fb c7 bf 75 cc 4d 3f 0f 57 9e 3e
       -1.0816345 -1.5623603 0.803901 0.30925795
0000b0 f4 1d 8d bf 52 73 df bf 84 d6 84 3f 3b 13 e9 be
       -1.1024766 -1.7457068 1.0377965 -0.45522484
0000c0 2e 75 28 3b 62 9e 8e be 3e e5 c8 3e 60 18 3a 3f
       0.002570461 -0.27855211 0.39237398 0.72693443
0000d0 1a d2 19 bf f8 a4 d7 be 78 d0 fa 3e 9b 88 89 bf
       -0.60086215 -0.4211805 0.48987174 -1.0744814
0000e0 71 0a ec be d6 03 dd 3e e3 b0 a9 3f ed 4c 77 be
       -0.46101716 0.4316699 1.3257107 -0.24150439
0000f0 c6 79 a5 bf 63 c7 ca bf 79 15 56 bf 0f 90 c5 3f
       -1.2927787 -1.5842098 -0.83626515 1.5434588
000100 a0 19 dd 3f c7 73 1b bf ea 7b 00 be e5 c1 d8 be
       1.7273445 -0.6072354 -0.1254727 -0.4233543
000110 10 5c a3 bd b7 5a a3 bf 3e 8a 55 3f 36 f5 86 3f
       -0.07976544 -1.2762059 0.83414066 1.0543582
000120 f0 75 9b bf 7b aa 4b bf 0f b1 4c 3f c5 e9 23 be
       -1.2145367 -0.7955701 0.7995767 -0.16007145
000130 6c ae b1 3d c5 5a 3a bf 5e b4 8e 3f 64 76 a0 3f
       0.086758465 -0.72794753 1.1148794 1.253613
000140 05 53 74 3d 4e 20 3b bf ce 44 90 be 05 f1 84 bf
       0.059649486 -0.7309617 -0.28177494 -1.0386053
000150 ec ad fa 3f 21 c9 cb 3d 8f 55 9d bf 03 12 9c bf
       1.9584327 0.09950472 -1.2291735 -1.2192997
000160 88 fb 2f 3f 0b 1e 75 3f 4f 00 52 3f f3 68 a6 bf
       0.6874318 0.95748967 0.8203172 -1.3000778
000170 91 88 50 3f de 7d 67 bf 64 25 fb 3e f7 34 0d 3f
       0.81458384 -0.90426433 0.49051964 0.5515894
000180 14 80 97 3f cb 8b 00 3f cf 3e 6d 3f a8 36 9c 3f
       1.1835961 0.5021331 0.92673963 1.220418
000190 e5 a3 6b bf 44 5d 14 3f 3f 04 0a c0 30 62 39 be
       -0.9204696 0.5795481 -2.1565092 -0.18103862
0001a0 71 25 a5 bd 60 6a cc 3f 54 de 42 bf f7 fd c0 bf
       -0.08063782 1.5969963 -0.76120496 -1.5077504
0001b0 83 12 ab 3f 0b 8c 96 bf 1d e3 d8 3f c7 28 92 3f
       1.3365024 -1.1761488 1.694431 1.1418694
0001c0 5c 7a 58 bf f3 e2 38 3f c5 2b 15 3f a8 3b a3 bc
       -0.84561706 0.722213 0.5826991 -0.019925907
0001d0 d3 ca 9a 3f 19 3d 1a bf 77 ce 2f 3f ba 4a 3f bf
       1.2093147 -0.6024948 0.68674415 -0.747234
0001e0 8d d3 a4 bd 38 5c 81 3f ee 43 1d 3f 16 e5 ee 3e
       -0.080481626 1.0106268 0.6143178 0.46659154
0001f0 ed 2f f0 3e b0 39 6d bf 1d 30 89 3f 59 0b 42 3c
       0.46911564 -0.9266615 1.0717808 0.011843526
000200 09 68 89 3f 80 62 a2 be 20 7e 81 3f ea b5 0c 3f
       1.0734874 -0.31715775 1.0116615 0.5496508
000210 7c 30 87 3f 3e f6 5e 3f f9 00 1c 3d 6a 96 ae 3e
       1.0561671 0.87094486 0.038086865 0.34099132
000220 09 fd aa 3f 1a 8a 9a 3e 44 b7 d8 3e 32 29 5d bf
       1.335847 0.30183488 0.4232732 -0.86390984
000230 7e 4f 80 3d 52 f2 29 bf 15 e1 df bf d5 61 47 3f
       0.06265162 -0.66385376 -1.7490565 0.77883655
000240 8d e4 1f 3f 3d df 43 bf 47 4e f6 be fe 8b b2 3f
       0.62458116 -0.7651251 -0.48106596 1.3948972
000250 05 85 10 bf 90 8d a8 3f 12 d2 74 3f 05 24 98 bf
       -0.5645297 1.3168201 0.9563304 -1.1885992
000260 88 b8 df bf 9c d5 04 be 98 d9 ae bc a9 2b 98 bf
       -1.747819 -0.1297211 -0.021343991 -1.1888324
000270 5d 25 9e bd 5d be 73 bf 67 1c 6b bf 48 76 d1 3f
       -0.0772197 -0.95212346 -0.91840214 1.6364222
000280 39 ac 60 bf 22 5f 17 40 ad e0 9a 3f ce eb c8 3f
       -0.8776279 2.3651814 1.2099816 1.5696962
000290 e0 f4 e0 3f fc 07 bf 3f c9 30 7d be a8 1e 38 bf
       1.757473 1.4924312 -0.24725641 -0.7192178
0002a0 b0 36 43 3f d8 cc e9 bd 25 07 60 3f 05 eb 87 bf
       0.7625532 -0.11416024 0.875109 -1.0618597
0002b0 ba 5c 06 3f 7f 3b c3 be 77 c2 8b be f4 a7 9b 3f
       0.5248524 -0.3813133 -0.27296802 1.216063
0002c0 1b b9 9d bf 64 60 4d 3f 37 c1 1c bf 02 28 34 bf
       -1.2322115 0.80225205 -0.6123232 -0.7037355
0002d0 82 2b 5f bf b5 40 c7 3f 18 f9 d2 3e 08 97 b6 be
       -0.8717576 1.5566622 0.41205668 -0.35662103
0002e0 ca a7 c6 3f 07 dc 39 3f a0 79 94 3e 7d 45 08 bf
       1.5519955 0.7260136 0.28999043 -0.5323103
0002f0 61 86 20 3f 73 ec 23 3f e5 74 d0 3f eb c0 19 bf
       0.62705046 0.6403267 1.6285673 -0.60059994
000300 0c e2 5b bf a4 f6 9e 3f f7 d6 74 3e 30 62 1c 3f
       -0.85891795 1.2419019 0.23910128 0.6108732
000310 a1 26 bd bf 67 a8 bc 3b 50 25 97 bf 3d ba 85 3d
       -1.4777414 0.00575738 -1.1808262 0.06529663
000320 30 31 86 be 85 73 53 bf 21 32 20 bf 52 39 2a bf
       -0.26209402 -0.82598144 -0.6257649 -0.66493714
000330 c7 6a 16 3e 92 c5 16 3e 73 d7 fe 3d e2 66 d0 3e
       0.1468917 0.14723805 0.124434374 0.40703493
000340 85 b9 a4 3e 13 d2 ec 3f 24 64 28 bf b8 44 e5 be
       0.3217279 1.850161 -0.657778 -0.4477899
000350 77 70 37 3f 56 61 c9 bf 49 2e 64 3f 41 f5 c6 3c
       0.7165598 -1.573283 0.89133126 0.024286868
000360 36 89 11 3e 99 89 3b bf 5f c2 29 bf 4e b5 79 bd
       0.14212498 -0.7325683 -0.6631221 -0.06096392
000370 9e 65 07 3f 84 5b 0c bf 85 48 bc 3f 28 ae 22 be
       0.5288943 -0.5482714 1.4709631 -0.15886748
000380 cf f9 85 be 09 5f d4 be e0 48 00 40 d9 35 a2 bf
       -0.2616715 -0.41478756 2.004448 -1.2672683
000390 fe 09 d6 bd ea 15 0e 40 46 91 26 3f a4 71 49 3f
       -0.104511246 2.2200875 0.6506542 0.78689027
0003a0 87 34 f7 3d c7 b5 01 40 e2 0f 9f 3e 59 56 9b be
       0.12070566 2.0267198 0.31066805 -0.30339316
0003b0 13 81 a7 3d 3d c2 ab 3d 55 3d 50 3d a3 4c d2 be
       0.08178916 0.083866574 0.05083974 -0.41074094
0003c0 57 73 ba 3f 9b 13 47 bf 21 eb 6a bf fe 7c 64 bf
       1.4566449 -0.7776429 -0.9176503 -0.8925322
0003d0 5b ef 22 3f 14 10 2f 3f 78 f2 17 bf 65 53 57 be
       0.6364648 0.6838391 -0.5935435 -0.21027906
0003e0 2a 90 66 3f 5d 34 b7 bd c0 53 8c bd 5f db 5d bf
       0.90063727 -0.089455344 -0.068519115 -0.8666286
0003f0 03 6b df 3c 04 9a b5 be c8 96 a6 bf 6c 90 64 3f
       0.027272707 -0.35469067 -1.3014765 0.8928287

hidden2Cat.bias f4 [6]
000000 e1 35 49 3e a9 65 c8 3e 94 eb d4 be 87 2b 11 bf
       0.1964946 0.3914006 -0.41585982 -0.5670704
000010 e4 32 ab be 91 64 2d 3e
       -0.33437264 0.16932894
